lightning_logs/version_4/checkpoints/epoch=9-step=1000.ckpt (torch, 4827 bytes, 3 tensors)

model.linear1.weight f4 [4, 2]
00000000: 367c 34c0 ce9e 35c0 d94b aa3e 8802 dbbf
00000010: a4f7 043f e840 bb3e ca0f bf3f 433f 2ebe
-2.8200812 -2.8378177 0.33260992 -1.7110147 0.5194037 0.36572957 1.4926693 -0.1701632

model.linear1.bias f4 [4]
00000000: 83b5 613f 6541 3a3e 8ad3 07bc f8bd cabe
0.8816759 0.18189009 -0.008290181 -0.3959806

model.linear2.weight f4 [1, 4]
00000000: 2cc4 59c0 e9df d93f 1e41 20bf 87c1 cbbf
-3.4025984 1.7021457 -0.6259936 -1.5918435
