lightning_logs/version_3/checkpoints/epoch=9-step=1000.ckpt (torch, 4827 bytes, 3 tensors)

model.linear1.weight f4 [4, 2]
0	0x3e652438	0.22377098
1	0xbe3c20f7	-0.1837195
2	0xc02db71c	-2.714301
3	0x401ff09a	2.4990602
4	0xbfe22a38	-1.7669134
5	0x3ffc5c43	1.9715656
6	0xbf8fc977	-1.1233357
7	0xbf3f5037	-0.74731773

model.linear1.bias f4 [4]
0	0xbf0ac94a	-0.5421339
1	0x3fa9ea56	1.3274639
2	0xbf81355a	-1.0094407
3	0x3ffea51d	1.9894139

model.linear2.weight f4 [1, 4]
0	0xbef37817	-0.4755256
1	0xc03d1e19	-2.954962
2	0x401cecaa	2.4519448
3	0x3fd433f6	1.6578357
