lightning_logs/version_2/checkpoints/epoch=9-step=1000.ckpt (torch, 4827 bytes, 3 tensors)

model.linear1.weight f4 [4, 2]
00000000: 0c53 44c0 e8fe 2540 0b1a e73e 3511 06bf
00000010: 96cc e2bf cac4 1d40 f75c b2bf 8e19 9bbf
-3.0675688 2.5936832 0.45137057 -0.52370006 -1.7718685 2.465136 -1.3934621 -1.2117174

model.linear1.bias f4 [4]
00000000: f272 96bf 59fe 583d e663 423f bf22 0bbe
-1.1753829 0.05297694 0.7593368 -0.13587473

model.linear2.weight f4 [1, 4]
00000000: 8ca2 5e40 88ff ec3e 1ff2 3bc0 ed4b f8bf
3.478671 0.46288705 -2.936653 -1.9398171
