lightning_logs/version_6/checkpoints/epoch=9-step=1000.ckpt (torch, 4827 bytes, 3 tensors)

model.linear1.weight f4 [4, 2]
00000000: 4f43 1640 b70a 3140 5fc6 10bf f0ec 433e
00000010: ba5c ed3f 3a4a 123f 0e71 dbbf 90c0 1f40
2.3478582 2.766279 -0.5655269 0.19133353 1.8543923 0.5714451 -1.7143877 2.496128

model.linear1.bias f4 [4]
00000000: 5276 7ebf 8f8c bbbe 58df aabf e5dc 723f
-0.9939929 -0.36630675 -1.3349409 0.9486831

model.linear2.weight f4 [1, 4]
00000000: bf09 4c40 655d 163f 8e1e 1bc0 8001 2cc0
3.1880949 0.5873626 -2.42374 -2.6875916
