lightning_logs/version_5/checkpoints/epoch=999-step=200000.ckpt (torch, 4891 bytes, 3 tensors)

model.linear1.weight f4 [4, 2]
-2.0836115 -1.7754297 3.1338325 -2.6176789 -4.1100154 4.0457835 -4.5793023 4.975961
00000000: e459 05c0 4841 e3bf b690 4840 0d88 27c0
00000010: 3f85 83c0 0f77 8140 a589 92c0 133b 9f40

model.linear1.bias f4 [4]
0.0925905 1.226317 -2.1923437 2.0290227
00000000: 17a0 bd3d f5f7 9c3f 5c4f 0cc0 82db 0140

model.linear2.weight f4 [1, 4]
-4.4325724 -3.4827313 6.5998735 -9.597724
00000000: a2d7 8dc0 12e5 5ec0 2a32 d340 4790 19c1
